model_backup_final/saved_model_final/conv5_biases.npy (npy, 640 bytes, 1 tensors)

array f4 [128]
00000000: 9c21 b23c d315 1a3d 9660 e13b 8c06 c63c
00000010: 965f 223d 0047 49bd 93a8 1dbd 242d e33b
00000020: c48e e13c 7ea3 223d a45e 363d 989a 553d
00000030: c380 e23c 14db 753c 0109 2a3d 3b10 133d
00000040: 7742 fc3c 80b7 263d 7269 8ebc 3e60 f63c
00000050: ce0d 103d 8dfa 083d 5c4d cc3b d8d3 cb3c
00000060: 4951 a73a 4c1f 3a3d 070d b03c 3311 0e3d
00000070: 1844 3e3d 0141 eb3c f2bf 1c3d be44 13bd
00000080: 08bd d7bc f537 883c 741e 153d f707 173d
00000090: 7b41 a93c 5a3b b03c 8a57 e03c 5cff 213d
000000a0: c77f aabc 872f 983c 4879 033d f26a 2f3d
000000b0: 3f33 17bc 1717 4b3d e113 043c a786 253d
000000c0: fd62 4e3d 8f05 643d 0a80 363d 357e c53c
000000d0: dd63 1e3d 1c14 163d 29d4 ebbb c4d9 83bc
000000e0: 22c7 383d 16e4 95bb 7df9 733c 52c6 2e3d
000000f0: e89e 2ebc 8faa 263d d82e e73c 3fa2 923c
00000100: e9e7 2cbc a1bd 193d 295b 673d 9fa0 093d
00000110: b05a e73c 4062 24bb e59c 593d 225f 4b3d
00000120: 3b86 88ba 1f24 bb3c 56da 243d 2284 af3c
00000130: 050d 0bbc fd63 c2bc 67ba 013d 68b3 623d
00000140: 5bd0 4e3d da9d 0d3d 2d8a 6bbc df21 dabc
00000150: 76d5 9a3c aa25 f33b 7a22 0f3d a4e2 6a3b
00000160: effa 1fbd 0fcd dc3c 0ebd 383d 9ce1 603a
00000170: b613 723c 3eb9 b73c 37e5 023d 1009 80bc
00000180: 4385 f03c 9bbc f43c 91c5 a1bb f890 a43c
00000190: a08f 443d 4c6f ebbc d87a c23c ff5f 043d
000001a0: 6ee1 523c a9a6 aa3c 84a0 1e3d 6386 49bc
000001b0: b8ca 0f3d 2c83 1c3d cc25 393c 8a18 e5bb
000001c0: f41f 9abd 69b8 fe3c 5a89 e6bc 3ce6 f33a
000001d0: bec4 393d c822 8d3c 4eb7 e83c ad8a a43c
000001e0: 424c 0b3d 5701 1b3d d7a0 0b3d cae2 86bd
000001f0: ce44 063d 7b5e c13c fd27 a83c 93df f2bb
0.021744542 0.03761847 0.006877969 0.024173044 0.03964194 -0.049139977 -0.038490843 0.0069328714
0.027533896 0.0397067 0.04452385 0.052149385 0.027649289 0.015005846 0.041512493 0.03590415
0.030793412 0.040702343 -0.017384265 0.030075189 0.035169415 0.03344207 0.006234808 0.024881288
0.0012765314 0.045440003 0.021490587 0.03468437 0.046451658 0.02871752 0.03826899 -0.03595423
-0.026335254 0.016628245 0.036405995 0.03687283 0.020661106 0.021512676 0.027385492 0.03955017
-0.020812882 0.01857735 0.032098085 0.0428266 -0.009228527 0.049582567 0.00806138 0.040411618
0.05038737 0.055669364 0.0445557 0.024108032 0.038669456 0.03664027 -0.0071969223 -0.01609505
0.045111783 -0.004574309 0.014891026 0.0426696 -0.010658003 0.04069 0.028220579 0.01789963
-0.010553339 0.03753436 0.05648342 0.033600446 0.028241485 -0.0025082976 0.053128142 0.049651273
-0.001041598 0.022844372 0.040247284 0.02142531 -0.008486991 -0.023729319 0.031671908 0.055346876
0.050491672 0.034574367 -0.014376205 -0.02662748 0.018900614 0.0074202614 0.03494499 0.0035840655
-0.03905767 0.026953248 0.04510217 0.00085785403 0.014775207 0.022427198 0.031956878 -0.015629321
0.02936042 0.02987509 -0.004936882 0.020088658 0.047988534 -0.028739594 0.023740217 0.03231811
0.012871129 0.020831423 0.0387273 -0.012300107 0.035105437 0.038211033 0.011300515 -0.0069914507
-0.07525626 0.031093793 -0.028141666 0.0018608044 0.045353644 0.017228499 0.028407719 0.020085657
0.034008272 0.037843075 0.034088936 -0.06586225 0.03278046 0.023604622 0.02052688 -0.007411906
