model_backup_final/saved_model_final/conv1_weights.npy (npy, 1280 bytes, 1 tensors)

array f4 [3, 3, 1, 32]
-0.0119727515 -0.020130655 0.04680027 -0.04699105 -0.0049992837 -0.00012521753 -0.0014384764 0.00077035563
0.03264011 7.7289544e-05 -0.0022426734 -9.2120536e-05 0.06605936 0.0036062617 0.025091125 -0.0019190141
0.028016465 -0.002820657 -0.010672868 -0.00761461 0.0057801562 0.021619977 0.02385376 -0.0021159712
-0.0026328147 0.0264465 0.03879358 -0.011251812 -0.0064849267 -0.00746289 0.0010095262 0.02524055
-0.025039336 0.04082312 0.024576835 -0.043913435 -0.00076648116 0.046477903 0.06232838 0.0027749513
0.022216562 -0.0005466925 -0.055502117 0.06072985 0.034249846 0.038222536 0.02313615 0.0005287376
-0.001996838 -0.02435942 -0.011375377 0.008650393 0.012405058 0.024968248 0.018250795 0.065556504
0.032880455 0.024222126 0.039898913 -0.008055188 -0.009389837 0.021660497 0.10369231 0.023024008
0.026588446 0.05560468 0.020728135 -0.037349015 -0.001220337 0.04494413 -0.017474458 0.06673126
-0.027114548 0.06989459 0.013025529 0.020094521 0.0084802415 0.056192074 0.031149454 0.051850792
0.019403854 0.024646845 0.050220255 0.030268272 0.051554106 -0.050552994 -0.053901404 0.030923614
0.06697976 0.039461765 0.020781863 0.025626969 0.02837033 0.0016863068 0.0059943665 -0.03611047
0.003112922 0.0019819166 -0.009314956 0.039030254 0.0150104575 0.008701954 0.010450369 -0.016951535
0.03058477 -0.0011962674 -0.009284851 -0.007583144 -0.036976155 -0.014810211 -0.07646614 0.0007345522
0.0004795585 -0.0067566773 0.032460414 -0.0067358864 -0.012608974 0.02904983 0.01810811 0.003483638
0.008233863 0.038782742 -0.019298373 0.018293567 -0.0052524144 -0.0047448254 0.00014592885 0.022880316
-0.010717559 0.015722234 -0.005317844 0.037309863 0.11747219 0.0012499484 -0.008334749 0.010461845
-0.008262761 0.0016544743 -0.008725532 0.0122851 -0.02266731 0.010211332 -0.05925622 0.049599774
0.025420919 0.019962795 0.014114713 0.027872475 0.0033299073 0.001343142 -0.026741967 0.022672767
0.0011204011 -0.092634216 0.0038059766 0.009058718 0.01028172 0.03403997 0.03517674 -0.012868622
0.030372765 0.0071378807 0.0020458982 0.016769521 -0.0037648983 -0.012442411 0.00248606 -0.00010579605
0.014622712 -0.0041449843 0.040218774 -0.013562085 0.01766159 -0.0069025443 0.002609476 0.014021163
-0.050921768 0.0014939415 0.048141982 0.00090129714 0.028698158 -0.10500273 -0.05386999 -0.03856096
-0.014686868 -0.039056756 0.044419143 0.04887522 -0.0036810702 -0.051155858 -0.00802029 -0.093118414
0.015409638 0.025028488 0.023109427 0.034309074 -0.0055333767 0.009141212 -0.015760336 -0.014937145
0.04727501 -0.004282508 0.033636156 0.023959579 -0.051192347 0.002251969 0.033588093 0.028419515
0.015184064 0.04807704 0.003758986 0.031929918 0.011786725 0.021817401 0.04492197 0.026244197
0.019615041 0.012429353 0.0019919681 0.020977946 0.023694988 0.053107783 -0.009471142 0.028911386
0.05482921 0.047619753 0.012222443 0.007917969 0.015324283 -0.0012842898 0.060927663 0.010522509
0.0016650776 -0.011419941 -0.012561267 0.005889527 -0.06304341 0.00801529 -0.0014872508 0.013398001
-0.00942334 0.038371284 0.006119322 0.043048028 -0.013945816 -0.031225823 -0.0074310196 0.047070358
0.0005562052 0.008171335 0.0053007477 0.014028348 0.07480137 0.0484928 0.018508386 -0.015580895
00000000: 5c29 44bc 0be9 a4bc a4b1 3f3d b079 40bd
00000010: 08d1 a3bb d34c 03b9 428b bcba b1f1 493a
00000020: a3b1 053d 8216 a238 d1f9 12bb d630 c1b8
00000030: 214a 873d 0857 6c3b e78b cd3c 6e87 fbba
00000040: c982 e53c c6da 38bb 41dd 2ebc fa83 f9bb
00000050: 7767 bd3b 611c b13c f668 c33c 1bac 0abb
00000060: 4d8b 2cbb 55a6 d83c 04e6 1e3d 8559 38bc
00000070: 827f d4bb 428b f4bb 1452 843a 45c5 ce3c
00000080: 4b1f cdbc 2536 273d 5c55 c93c 93de 33bd
00000090: aeed 48ba 9d5f 3e3d 0b4c 7f3d f5db 353b
000000a0: 82ff b53c ea4f 0fba 3056 63bd ddbf 783d
000000b0: 9149 0c3d 3c8f 1c3d 0688 bd3c fb9a 0a3a
000000c0: 62dd 02bb 688d c7bc ca5f 3abc 61ba 0d3c
000000d0: 963e 4b3c 368a cc3c b182 953c 7d42 863d
000000e0: a8ad 063d 7b6d c63c 0b6d 233d e8f9 03bc
000000f0: d5d7 19bc 5b71 b13c a25c d43d d89c bc3c
00000100: 03d0 d93c bcc1 633d 0dce a93c 48fb 18bd
00000110: b7f3 9fba 5617 383d 9826 8fbc 66aa 883d
00000120: 541f debc e524 8f3d 0769 553c 449d a43c
00000130: b6f0 0a3c a929 663d 242d ff3c 7f61 543d
00000140: d5f4 9e3c 2ee8 c93c c1b3 4d3d 2bf5 f73c
00000150: 662a 533d a810 4fbd b8c7 5cbd 8553 fd3c
00000160: af2c 893d a9a2 213d ba3e aa3c a6ef d13c
00000170: e568 e83c 1107 dd3a 646c c43b 92e8 13bd
00000180: 2a02 4c3b 0be3 013b c29d 18bc 30de 1f3d
00000190: 6cee 753c a492 0e3c 0638 2b3c f2dd 8abc
000001a0: e98c fa3c 13cc 9cba 7d1f 18bc 067c f8bb
000001b0: 4f74 17bd 87a6 72bc 489a 9cbd f78e 403a
000001c0: 416d fb39 1e67 ddbb 36f5 043d b6b8 dcbb
000001d0: df95 4ebc e9f9 ed3c 7657 943c bf4d 643b
000001e0: 53e7 063c a7da 1e3d 9f17 9ebc 64dc 953c
000001f0: 721c acbb 7b7a 9bbb 7a04 1939 806f bb3c
00000200: b398 2fbc eacb 803c 4f41 aebb 3ad2 183d
00000210: 4295 f03d 4fd5 a33a 798e 08bc 2968 2b3c
00000220: 8860 07bc f2da d83a 89f5 0ebc 7247 493c
00000230: cbb0 b9bc 6e4d 273c a6b6 72bd 2229 4b3d
00000240: 883f d03c 0489 a33c 6641 673c d154 e43c
00000250: 933a 5a3b 5e0c b03a f811 dbbc 3dbc b93c
00000260: 6cda 923a 02b7 bdbd b16d 793b 046b 143c
00000270: a974 283c 7f6d 0b3d 7c15 103d ead6 52bc
00000280: 4ed0 f83c e2e4 e93b 7a14 063b 3c60 893c
00000290: 83bc 76bb 41db 4bbc 2aed 223b d2de ddb8
000002a0: 1994 6f3c a6d2 87bb 71bc 243d 8233 5ebc
000002b0: 0aaf 903c bd2e e2bb be03 2b3b 05b9 653c
000002c0: 5893 50bd 5cd0 c33a 8730 453d 0745 6c3a
000002d0: 6618 eb3c ac0b d7bd c7a6 5cbd 19f2 1dbd
000002e0: 30a1 70bc faf9 1fbd d9f0 353d 6231 483d
000002f0: 1c3e 71bb ce88 51bd 8967 03bc deb4 bebd
00000300: b578 7c3c 8b08 cd3c fb4f bd3c ac87 0c3d
00000310: 5451 b5bb 06c5 153c d21b 81bc edba 74bc
00000320: 71a3 413d 4854 8cbb 11c6 093d e146 c43c
00000330: 11af 51bd c595 133b ab93 093d 0bd0 e83c
00000340: 95c6 783c 6eec 443d 5259 763b f2c8 023d
00000350: 1c1d 413c 68ba b23c 1a00 383d 12fe d63c
00000360: b9af a03c 7ca4 4b3c ae8b 023b f1d9 ab3c
00000370: fe1b c23c 8c87 593d d92c 1bbc 92d7 ec3c
00000380: 9894 603d ee0c 433d a440 483c 5eba 013c
00000390: b412 7b3c 9d55 a8ba 498f 793d 9a66 2c3c
000003a0: bc3e da3a b41a 3bbc c6cd 4dbc effc c03b
000003b0: e71c 81bd 9052 033c dbef c2ba 4a83 5b3c
000003c0: 5a64 1abc 352b 1d3d 9884 c83b 2153 303d
000003d0: fe7c 64bc 4ccd ffbc e97f f3bb d9cc 403d
000003e0: 4dce 113a 10e1 053c e5b1 ad3b 28d7 653c
000003f0: 7631 993d 63a0 463d e69e 973c 0347 7fbc
