model_backup_final/saved_model_final/conv5_weights.npy (npy, 295040 bytes, 1 tensors)

array f4 [3, 3, 64, 128]
-0.024336077 -0.010556843 0.033296492 -0.004344399 -0.020052234 0.028533164 0.014511002 0.035981078
0.011991657 0.00072821137 0.0022800905 -0.015220353 0.025939917 -0.011700362 -0.015510958 -0.019304609
-0.023823984 -0.009457459 -0.018595686 0.022483582 -0.036574185 -0.015162506 -0.013959368 -0.020247003
0.02413784 -0.008064007 0.013833822 0.037987478 0.01256863 -0.0039521167 -0.01943609 0.013929343
0.011631487 0.016401568 -0.00148278 -0.02386745 0.01887285 -0.031578656 0.0002965008 -0.013488735
0.009853598 -0.016755356 0.0058786827 -0.0006680676 0.0117844585 -0.0034209054 -0.03153052 0.0037714469
0.009423117 0.015050055 0.008118427 -0.011053569 -0.0038936965 -0.006044929 0.019369809 0.019750124
0.002885198 -0.0012498291 0.022222353 0.027773025 0.013240218 -0.013503792 -0.005591646 -0.014879354
-0.043120783 -0.0055659954 -0.00412394 0.0072393254 -0.0068137003 -0.015501541 -0.0068542394 -0.003145837
0.0061358553 -0.025665578 0.012644267 -0.028920641 0.0040054773 0.010134058 -0.010203387 -0.035912912
0.009111255 -0.0083292965 0.023746278 0.02175031 0.03246686 -0.0040975697 0.004341786 0.016758006
0.017525813 0.015586919 -0.003473 -0.0024001012 -0.015422217 0.009830123 0.0134350015 0.015051214
-0.016507188 -0.01985786 -0.010920233 -0.0006141603 0.025029102 0.054022204 0.006239672 -0.0049039973
1.3585159e-05 -0.01951265 0.023400728 0.024908219 -0.018621102 0.03743477 -0.01650844 0.0025332514
0.015308041 0.0005920292 0.033212457 0.0072749397 -0.018968346 0.006460629 0.019734167 -0.0023210435
0.011953868 -0.0029459868 -0.0070837247 0.018766489 -0.0076795686 -0.015426014 -0.056401797 0.016200723
-0.016711676 -0.009758677 0.019058792 -0.0022502772 0.012687032 0.00942954 0.016448708 0.03547828
0.02772251 0.01085505 -0.026799845 -0.01945308 -0.00462867 -0.01788543 -0.0019189484 0.016056724
-0.017339313 -0.06490489 -0.039783124 0.007985527 -0.04093581 -0.015602423 -0.018172877 -0.034764234
0.011013005 0.0122856 0.027331665 0.04892281 0.048561733 -0.03155551 -0.001612382 0.036476653
0.0135841295 0.010596118 0.0020047948 0.0064333826 0.019406833 -0.054470483 0.02301479 -0.007038257
0.004889008 0.016090162 -0.017274 -0.018757556 0.01502274 -0.009476438 -0.0419385 0.025695793
-0.009474301 0.05463173 -0.03327147 -0.032254536 -0.032050036 -0.044184346 0.009938806 0.0042836214
0.024082948 0.010091215 0.020054713 0.03967894 -0.005965161 -0.0136985425 -0.046808068 -0.04670216
-0.03935932 -0.040721763 -0.0041412483 0.012015171 -0.036902845 -0.07406872 -0.022469817 -0.009248718
-0.011337967 -0.009504744 0.004344103 -0.051604863 0.014244425 0.038695205 0.0021710617 -0.0056218114
0.009890205 -0.03573837 -0.022774199 -0.00045775704 0.05023858 0.016799817 -0.006748696 -0.032453835
-0.00663063 0.008059474 0.0063428525 -0.014087541 0.0100153 -0.012408369 0.012064425 0.009306014
-0.05241569 -0.0026156607 0.0008874934 0.0051487987 0.037125435 0.050982803 0.038401634 -0.005789528
-0.0059750224 -0.023442425 -0.013139374 0.01697333 -0.023269601 -0.017954875 0.015012908 0.00017627867
0.0018656321 0.01587148 0.009166547 -0.005152466 -0.012456634 0.017702384 -0.0002358004 -0.041050237
0.034268975 -0.011742677 -0.036170203 0.038679168 0.0046945815 -0.036270313 -0.071840905 0.0025332829
00000000: 745c c7bc 9cf6 2cbc e761 083d 765b 8ebb
00000010: 9544 a4bc 62be e93c 8ebf 6d3c e560 133d
00000020: a878 443c 70e5 3e3a 926d 153b ca5e 79bc
00000030: f37f d43c e0b2 3fbc ac21 7ebc b324 9ebc
00000040: 842a c3bc 75f3 1abc fb55 98bc 7d2f b83c
00000050: d0ce 15bd 296c 78bc d5b5 64bc 0bdd a5bc
00000060: b8bc c53c e61e 04bc 41a7 623c c298 1b3d
00000070: a8ec 4d3c c280 81bb 6f38 9fbc e637 643c
00000080: fe91 3e3c 955c 863c d759 c2ba ac85 c3bc
00000090: 3c9b 9a3c 9f58 01bd aa73 9b39 dbff 5cbc
000000a0: fc70 213c 8742 89bc f7a1 c03b 4221 2fba
000000b0: 9a13 413c 4531 60bb 2626 01bd 612a 773b
000000c0: 6b63 1a3c 8294 763c 2703 053c 071a 35bc
000000d0: 632d 7fbb 8a14 c6bb 6fad 9e3c 03cb a13c
000000e0: 9715 3d3b 4ed1 a3ba a70b b63c 4184 e33c
000000f0: 80ed 583c 023f 5dbc 203a b7bb 89c8 73bc
00000100: 6b9f 30bd f462 b6bb 1e22 87bb dd37 ed3b
00000110: 7645 dfbb 2dfa 7dbc 8799 e0bb 632a 4ebb
00000120: 490f c93b 9e40 d2bc e629 4f3c fbea ecbc
00000130: 6140 833b 5209 263c 1b2c 27bc 6b19 13bd
00000140: 6047 153c 9a77 08bc 8e87 c23c b52d b23c
00000150: f8fb 043d e844 86bb 8a45 8e3b 1648 893c
00000160: 4b92 8f3c 4760 7f3c 459b 63bb 044b 1dbb
00000170: 77ad 7cbc 860e 213c 7b1e 5c3c 5e99 763c
00000180: 153a 87bc f3ac a2bc c7ea 32bc 9aff 20ba
00000190: d509 cd3c 6346 5d3d 2a76 cc3b b6b1 a0bb
000001a0: d0eb 6337 fed8 9fbc e2b2 bf3c 520c cc3c
000001b0: 488b 98bc 3455 193d b53c 87bc e804 263b
000001c0: 94ce 7a3c 6832 1b3a c909 083d 9e62 ee3b
000001d0: 8163 9bbc afb3 d33b 8ca9 a13c a61c 18bb
000001e0: 28da 433c 7511 41bb 971e e8bb 2ebc 993c
000001f0: e4a4 fbbb 64bd 7cbc 9205 67bd 61b7 843c
00000200: ede6 88bc dce2 1fbc 2f21 9c3c 6379 13bb
00000210: 45dd 4f3c 5b7e 1a3c 71bf 863c ac51 113d
00000220: 511a e33c 61d9 313c 598b dbbc 115c 9fbc
00000230: 19ac 97bb 7784 92bc 3985 fbba 6489 833c
00000240: 2d0b 8ebc dbec 84bd a1f3 22bd bad5 023c
00000250: 4fac 27bd 4ea1 7fbc 49df 94bc f164 0ebd
00000260: e46f 343c 8b49 493c a8e6 df3c 4963 483d
00000270: abe8 463d 5a40 01bd 9056 d3ba 8b68 153d
00000280: f88f 5e3c 579b 2d3c e062 033b 20cf d23b
00000290: 14fb 9e3c 711c 5fbd 8389 bc3c 2ea1 e6bb
000002a0: f933 a03b 84cf 833c 3482 8dbc 72a9 99bc
000002b0: f021 763c 1043 1bbc b4c7 2bbd fc7f d23c
000002c0: 193a 1bbc 85c5 5f3d aa47 08bd 551d 04bd
000002d0: e646 03bd a5fa 34bd 60d6 223c 9f5d 8c3b
000002e0: 9a49 c53c a055 253c c849 a43c 6286 223d
000002f0: 6677 c3bb da6f 60bc d1b9 3fbd c44a 3fbd
00000300: 3d37 21bd ddcb 26bd 4fb3 87bb 48db 443c
00000310: 7027 17bd 57b1 97bd 9f12 b8bc ef87 17bc
00000320: e1c2 39bc c9b9 1bbc fa58 8e3b 9f5f 53bd
00000330: 7361 693c dd7e 1e3d 5f48 0e3b 2c37 b8bb
00000340: 870a 223c 6662 12bd f590 babc 1cff efb9
00000350: f8c6 4d3d c59f 893c 2a24 ddbb 50ee 04bd
00000360: c245 d9bb e20b 043c b4d7 cf3b 6ecf 66bc
00000370: 3617 243c 794c 4bbc dea9 453c 4078 183c
00000380: d6b1 56bd 816b 2bbb ada6 683a 41b7 a83b
00000390: d710 183d 58d3 503d 084b 1d3d 15b6 bdbb
000003a0: 1fca c3bb 540a c0bc 8746 57bc a70b 8b3c
000003b0: e49f bebc 1a16 93bc b3f8 753c 72d7 3839
000003c0: 3a88 f43a e804 823c 492f 163c 04d6 a8bb
000003d0: e916 4cbc 9704 913c 3041 77b9 4b24 28bd
000003e0: a05d 0c3d 5b64 40bc 3527 14bd 0c6e 1e3d
000003f0: 01d5 993b 2e90 14bd 5321 93bd 6f05 263b
