model_backup_final/saved_model_final/conv3_weights.npy (npy, 73856 bytes, 1 tensors)

array f4 [3, 3, 32, 64]
0	0xbc940453	-0.018068468
1	0xbc843e29	-0.016142922
2	0x3b75d3a1	0.0037510174
3	0x3cf2414e	0.029572155
4	0xbc027823	-0.007963213
5	0x3be8c8c4	0.0071040113
6	0xbb5ddce3	-0.0033853583
7	0x3c3eabb5	0.011637618
8	0xbb6586aa	-0.0035022893
9	0x3cc59259	0.024117636
10	0xbc03095f	-0.00799784
11	0x3bad3f00	0.005287051
12	0xbbb8894d	-0.005631602
13	0x3beb9e77	0.0071905213
14	0xbc0b090a	-0.008486042
15	0xbc23b1ef	-0.009991153
16	0x3a29a676	0.0006471643
17	0x3c33f493	0.010983604
18	0xba988261	-0.0011635536
19	0xbbc23c3f	-0.005927592
20	0x3bec3159	0.007208031
21	0x3c3c4fde	0.011493651
22	0x3c282ea1	0.010265023
23	0x3ae9749a	0.0017811239
24	0xb8efe8b2	-0.00011439751
25	0xbae5ae58	-0.0017523272
26	0xbbff2b22	-0.0077871243
27	0xbc216069	-0.009849646
28	0xbc7505d5	-0.014955004
29	0x3c9f2cf9	0.019430624
30	0x3bd4ff80	0.0065001845
31	0xbc9427ba	-0.01808535
32	0xbb77c7e3	-0.003780835
33	0xbc0ded8f	-0.008662595
34	0xbb140864	-0.002258801
35	0x3c4df3d8	0.012570344
36	0x3bddd9ad	0.0067703337
37	0x3c247a87	0.010038978
38	0x3c4eae04	0.012614731
39	0x39c03a29	0.00036664426
40	0x3bd380b0	0.0064545497
41	0x3b1981ff	0.002342343
42	0xbc70f736	-0.014707377
43	0xbc51a64f	-0.012795999
44	0xbb84f71a	-0.004057777
45	0xb95cb3b6	-0.00021047783
46	0xbb920a72	-0.0044568116
47	0x3c8e897a	0.017399538
48	0x3c0927b7	0.008371285
49	0xbb3cb12e	-0.002879213
50	0xbc12e590	-0.008965865
51	0x3c8b5eff	0.017013071
52	0x3c8c6ff8	0.017143235
53	0x3cc0f4ac	0.023554169
54	0x3bbaf8a0	0.005705908
55	0xb9f79764	-0.00047224306
56	0x3c23528f	0.009968414
57	0x3c3fadcc	0.011699151
58	0x3b735d36	0.0037134415
59	0xbc28c890	-0.010301724
60	0xbbd7dd98	-0.0065876953
61	0x3c085cb0	0.00832288
62	0x3c84ed86	0.016226541
63	0x3c8494ce	0.016184237
64	0xbb060d4f	-0.002045471
65	0xbc1873dd	-0.009304968
66	0xbc09dd5a	-0.008414591
67	0x3c9b025f	0.018922029
68	0x3c740415	0.014893551
69	0xbcbb5294	-0.022866525
70	0x3d30e720	0.043189168
71	0x3baf4262	0.0053484896
72	0xbcab57c4	-0.020915873
73	0xbb63c312	-0.0034753722
74	0x3c86ef95	0.016471663
75	0xbb0c4d92	-0.002140854
76	0x3b3e30d2	0.0029020798
77	0x3d009148	0.03138855
78	0xbc824fb8	-0.015907153
79	0x3c2c4296	0.010513922
80	0x3c07a849	0.008279868
81	0xbc0160ea	-0.007896641
82	0xbcb9aa8d	-0.022664333
83	0x3b91cab3	0.0044492125
84	0x3cc2f4a6	0.023798298
85	0x3d1a3db3	0.037656497
86	0x3d0a19f1	0.033716146
87	0x3c1a7033	0.009426164
88	0xbc13da9a	-0.009024287
89	0xbc6148a0	-0.013750225
90	0x3b9ac19e	0.004722788
91	0xbbcbe482	-0.0062223086
92	0xbc21c289	-0.009873041
93	0x3b2bd785	0.002622099
94	0x3bf2189b	0.007388187
95	0xbc60cd41	-0.013720811
96	0xbcbfefaf	-0.02342972
97	0x3a83a57e	0.0010043827
98	0xbb9941c5	-0.00467703
99	0x3bbcda4d	0.005763328
100	0x3bd9542b	0.006632348
101	0x3d016815	0.0315934
102	0x3cbeb8b0	0.023281425
103	0xba5e8e6c	-0.00084898504
104	0x3c4d103b	0.012516077
105	0xbc0df41b	-0.008664156
106	0x3b9d24b8	0.004795637
107	0x3c84e240	0.016221166
108	0xbc227834	-0.009916354
109	0xbcca736c	-0.02471324
110	0x3c63a2a3	0.013893756
111	0x3c130d04	0.008975271
112	0x3cb7b228	0.022423819
113	0xbc5bdd06	-0.013419395
114	0x3c2a03fe	0.010376928
115	0x3cc1ce03	0.023657804
116	0x3c976fc1	0.018485906
117	0x3d001565	0.031270403
118	0xbbc0466c	-0.00586777
119	0x3cdbbd77	0.026823742
120	0x3c10a40a	0.008828172
121	0x3ca0794a	0.019589085
122	0xbbae6421	-0.005321995
123	0x3c53047b	0.012879486
124	0xbc2676a5	-0.010160123
125	0xba486900	-0.0007645041
126	0x3c4bc238	0.012436442
127	0x3d0cabe6	0.034343623
128	0xbb84e925	-0.0040561133
129	0x3cab951f	0.02094513
130	0x3b9e7248	0.0048354007
131	0xbc8ee006	-0.017440807
132	0xbc929544	-0.017893441
133	0x3b854537	0.004067089
134	0x3c3194c6	0.010838693
135	0x3c5b3d61	0.013381333
136	0xba12b12b	-0.0005595858
137	0xbc9658a8	-0.018352821
138	0x3b8b5892	0.0042525018
139	0xbb66906c	-0.0035181297
140	0xbce8eccf	-0.028433232
141	0x3c305eb6	0.010764768
142	0xbc48094d	-0.012209249
143	0xbc5bb3d1	-0.013409571
144	0x3cd1d209	0.025612848
145	0xbd5f5474	-0.0545239
146	0x3d01dbe2	0.031703837
147	0x3b381305	0.0028087508
148	0xbbcf8c73	-0.0063338815
149	0x3c200dcb	0.0097689135
150	0xb9961175	-0.00028623236
151	0xbb1ab608	-0.0023607034
152	0x3c1d95f9	0.009618276
153	0xbbda9e75	-0.0066717216
154	0xbbdd7dc0	-0.0067593753
155	0xbc020427	-0.00793556
156	0x3ace457a	0.0015737258
157	0x3bae9ae8	0.005328525
158	0x3c52e8e6	0.01287291
159	0x3c8bd6d0	0.017070204
160	0x3c56e5e2	0.013116332
161	0x3bc751f2	0.0060827667
162	0x3c5422a6	0.012947714
163	0xbb67fccc	-0.0035398481
164	0x3c70a36c	0.0146874
165	0x3bbb9c6a	0.005725433
166	0x3b8c84fa	0.004288313
167	0x3bdc13c4	0.0067162234
168	0x3bb7709d	0.0055981413
169	0xbc5a8c3d	-0.0133390995
170	0xbc3dc719	-0.011583113
171	0xbc360cf2	-0.011111485
172	0xbc507875	-0.012724032
173	0xbc17c55d	-0.009263364
174	0x3c644a21	0.013933689
175	0x3c1c5244	0.009541098
176	0x3c868a15	0.016423265
177	0xbcd48ac4	-0.025945075
178	0xbc8de643	-0.017321711
179	0x3c630295	0.013855596
180	0x3ccf7a03	0.025326734
181	0x3d0489c8	0.03235796
182	0x3bc9d47c	0.0061593633
183	0x3c18d6e9	0.009328582
184	0x3bd0bdda	0.0063702883
185	0xbc2c2158	-0.010505997
186	0xbca37acd	-0.019956017
187	0xbc5ebeb4	-0.013595272
188	0x3c859e00	0.016310692
189	0x38af5a92	8.36152e-05
190	0xba6f5804	-0.0009130242
191	0x3c2b3062	0.010448547
192	0x3cc2db94	0.023786344
193	0x3c685582	0.014180543
194	0xbd270cff	-0.04078388
195	0xba0703e7	-0.0005150423
196	0xbdaf4b9a	-0.08559342
197	0x3c12308b	0.008922706
198	0xbc6d5dfa	-0.014487738
199	0xbc9cfdf2	-0.01916406
200	0xbcd3cbe7	-0.025854064
201	0xbd8ad8fa	-0.06779666
202	0xbc94219a	-0.018082429
203	0xbc9264a4	-0.017870255
204	0x3ca592ad	0.020211542
205	0xbd4a2ae3	-0.049357306
206	0x3ca43497	0.020044608
207	0xbd448edd	-0.047987808
208	0xbd0531f2	-0.032518335
209	0xbb0c2d45	-0.0021389287
210	0xbcd8ce32	-0.02646551
211	0xbd903867	-0.07042008
212	0xbbb279b5	-0.0054466375
213	0xbc92c5e7	-0.017916633
214	0xbcc4a72f	-0.0240055
215	0xbc62a458	-0.013833128
216	0x3bc06a7f	0.0058720703
217	0x3b88bac3	0.0041726544
218	0xbcbc5b5d	-0.022992784
219	0xba5e9039	-0.0008490119
220	0xbd376643	-0.04477526
221	0xbc7ebafa	-0.015547508
222	0xbd77c334	-0.060488895
223	0xbc34ad40	-0.011027634
224	0xbd364567	-0.04449978
225	0xbd2d4f5e	-0.04231202
226	0xbcc9947d	-0.024606938
227	0xbd5577cd	-0.052116204
228	0xbd0cf282	-0.03441096
229	0x3a4ba833	0.0007768899
230	0xbd3304d1	-0.043705765
231	0xbd647278	-0.05577323
232	0x3be33c19	0.0069346544
233	0xbb5ad154	-0.003338893
234	0xbcaf26f9	-0.021380888
235	0x3caebb13	0.021329438
236	0x3cb57091	0.022148402
237	0xbd41ff95	-0.047362883
238	0xbcd0b3f7	-0.025476439
239	0xbb3710e0	-0.0027933642
240	0x3c0dead3	0.0086619435
241	0xbd955f60	-0.07293582
242	0x3d119b0a	0.035548247
243	0xbc2ef938	-0.010679536
244	0xbd1b3d34	-0.037900165
245	0xbc6de347	-0.014519519
246	0xbcf11035	-0.029426673
247	0x3c55e048	0.013053961
248	0xbd826132	-0.06366195
249	0x3bef0c4d	0.0072951675
250	0xbd29b099	-0.041428182
251	0xbd23505e	-0.039871566
252	0xbd6d5d41	-0.057950262
253	0xbb71b4f8	-0.0036881547
254	0xbd206987	-0.03916314
255	0xbc57a5f7	-0.013162128
