model_backup_final/saved_model_final/conv4_weights.npy (npy, 147584 bytes, 1 tensors)

array f4 [3, 3, 64, 64]
0.02242126 0.047924057 0.011538945 0.00855654 0.04155208 0.041522842 0.024260871 0.049879577
0.02489911 0.029217685 0.05800766 0.05900899 0.015714297 0.044064038 0.041167207 0.03154682
0.051704057 0.02170992 -0.0144421505 0.061572246 0.03864922 0.018002301 -0.0063777654 -0.003965
0.031287637 0.027517725 0.008164675 0.0018428093 0.016344134 0.049762826 0.033899553 0.044084646
0.03313333 -0.00215683 0.005991243 -0.019504787 0.038530078 0.047755837 0.0467884 0.014703212
0.048744697 0.042112786 -0.009001048 0.052562717 0.05037337 0.037944555 0.010692873 0.030545698
0.025324345 -0.02186921 0.07179117 0.03556705 0.042208925 0.0025062894 0.061047032 -0.010870913
-0.031769082 -0.012986036 -0.0657881 0.029819936 0.013752065 0.036692552 0.03807498 -0.018643588
-0.061081953 -0.08193473 -0.02014292 0.019440899 -0.08533548 -0.062348466 -0.016573843 -0.008131559
-4.893896e-05 -0.045003835 -0.050322946 -0.034793235 -0.07634124 -0.038549688 -0.021920605 -0.070591584
-0.020806296 -0.04218185 -0.007130306 -0.052456636 -0.11327018 -0.022891792 -0.0028690314 0.01017875
-0.03798932 -0.07971896 -0.013693082 -0.092320114 -0.023212625 -0.040004753 -0.04812097 -0.036457438
0.011235721 0.008126878 -0.064822525 0.010476013 -0.06499558 -0.04632888 -0.032556344 -0.06611936
-0.06549409 -0.0121628335 0.0040760036 -0.07117613 -0.07324054 -0.039868873 -0.0072279037 -0.030342815
-0.04874939 -0.001874979 -0.0728419 -0.028403388 -0.0422354 -0.0759156 -0.032530103 -0.010806942
0.00897438 0.000777645 0.060088575 -0.04288633 -0.05876097 -0.066786245 -0.029587073 -0.020973157
0.007474386 0.0113498205 -0.010918161 0.026262647 0.013238953 0.026044881 0.005086467 0.027205354
0.017525973 0.020773796 0.022427594 0.04930703 0.027322905 0.021814054 0.037326805 -0.0001786641
0.026315274 0.0202244 -0.01313022 0.02730601 0.018098695 0.0003987861 -0.0058432794 -0.006387466
0.04470328 0.007107202 -0.0035123702 -0.011895117 0.031542175 0.039610658 0.02947186 0.025693586
-0.006830632 0.0025269561 -0.004304138 -0.020430183 0.009860596 0.021531176 0.05735321 -0.015073502
0.02693663 0.046147317 0.0506088 -0.005913943 0.04029227 0.016947946 0.022215556 0.04147075
0.022149744 -0.0015829862 0.022591028 0.040712737 0.031897932 -0.002383755 0.038143344 0.018982075
0.0193537 0.05852388 -0.005618361 0.03374292 -0.002666235 -0.011053749 0.033612162 0.022322865
-0.009982651 -0.0016493647 -0.01668258 0.030058982 -0.0042580194 0.009800121 0.002166889 0.003546224
0.017986577 -0.015512422 -0.00024498 -0.0020927317 -0.0034719342 -0.003971128 0.02038004 0.023444781
0.012323715 0.0035815162 -0.029687775 -0.00920386 0.02320162 0.004022924 -0.043436743 0.021124857
-0.012287801 0.009817306 -0.017378215 0.011068496 0.021326795 -0.0058601173 -0.014566992 0.003921627
0.013680358 -0.021664023 -0.013218357 -0.025024658 0.008370347 -0.020644581 -0.017087666 0.0073623112
0.006797602 -0.017309897 0.002694671 -0.009316838 -0.003209771 -0.006369029 0.0072774403 0.016589338
-0.004139796 0.01418514 0.018045716 0.017206835 -0.0065216045 0.0042963307 0.007447653 -0.01936006
0.04766207 0.0020970136 0.033552866 -0.010219998 0.009550545 -0.0031947636 -0.013163215 0.021505233
00000000: caac b73c 044c 443d d80d 3d3c bb30 0c3c
00000010: 8432 2a3d db13 2a3d bcbe c63c 874e 4c3d
00000020: 38f9 cb3c ed59 ef3c 7199 6d3d 69b3 713d
00000030: 45bb 803c 7e7c 343d f29e 283d 3d37 013d
00000040: a2c7 533d 01d9 b13c c59e 6cbc 2e33 7c3d
00000050: a54e 1e3d 9079 933c 93fc d0bb d5ec 81bb
00000060: 7727 003d da6c e13c 21c5 053c 6b8a f13a
00000070: 22e4 853c 1bd4 4b3d 42da 0a3d 1a92 343d
00000080: d1b6 073d 9a59 0dbb 3052 c43b 81c8 9fbc
00000090: b7d1 1d3d a09b 433d 31a5 3f3d bee5 703c
000000a0: 85a8 473d 757e 2c3d 2279 13bc 014c 573d
000000b0: 4f54 4e3d c06b 1b3d 2931 2f3c f93a fa3c
000000c0: 0075 cf3c 0f27 b3bc 4007 933d c1ae 113d
000000d0: 44e3 2c3d 8f40 243b 740c 7a3d ea1b 32bc
000000e0: 4c20 02bd 62c3 54bc e9bb 86bd f048 f43c
000000f0: 5750 613c ee4a 163d 83f4 1b3d 70ba 98bc
00000100: 1231 7abd 65cd a7bd c402 a5bc 8542 9f3c
00000110: 5ec4 aebd 1b61 7fbd dec5 87bc 3b3a 05bc
00000120: cf43 4db8 f155 38bd 6f1f 4ebd 5a83 0ebd
00000130: cc58 9cbd 47e6 1dbd d792 b3bc 5292 90bd
00000140: f771 aabc e0c6 2cbd 58a5 e9bb c5dc 56bd
00000150: 32fa e7bd 9187 bbbc 5c06 3cbb c6c4 263c
00000160: b09a 1bbd b243 a3bd f358 60bc 5412 bdbd
00000170: 6728 bebc 06dc 23bd 7f1a 45bd 6554 15bd
00000180: 0816 383c 9926 053c acc1 84bd 95a3 2b3c
00000190: 671c 85bd 5ac3 3dbd cd59 05bd 9669 87bd
000001a0: c421 86bd 9f46 47bc ff8f 853b cac4 91bd
000001b0: 23ff 95bd 8b4d 23bd 0dd8 ecbb 7f91 f8bc
000001c0: 71ad 47bd dbc1 f5ba 222e 95bd 39ae e8bc
000001d0: 07ff 2cbd a379 9bbd 493e 05bd 9a0f 31bc
000001e0: 4709 133c dfda 4b3a 701f 763d 94a9 2fbd
000001f0: 58af 70bd 3ac7 88bd 9760 f2bc e6cf abbc
00000200: b2eb f43b 99f4 393c 16e2 32bc c324 d73c
00000210: 32e8 583c 135c d53c 61ac a63b c3dd de3c
00000220: a192 8f3c cf2d aa3c 13ba b73c 2bf6 493d
00000230: 49d4 df3c 63b3 b23c fee3 183d c757 3bb9
00000240: 2193 d73c a4ad a53c 2220 57bc dab0 df3c
00000250: b743 943c 2a14 d139 fb78 bfbb f34d d1bb
00000260: c91a 373d 88e3 e83b cb2f 66bb bde3 42bc
00000270: 5e32 013d c93e 223d f86e f13c 5b7b d23c
00000280: 7fd3 dfbb 4a9b 253b ba09 8dbb 335d a7bc
00000290: 568e 213c 2662 b03c 33eb 6a3d daf6 76bc
000002a0: 35aa dc3c f804 3d3d 2c4b 4f3d c0c9 c1bb
000002b0: 8209 253d 6bd6 8a3c 66fd b53c 3cdd 293d
000002c0: 6173 b53c 347c cfba d210 b93c 66c2 263d
000002d0: 68a7 023d c638 1cbb 323c 1c3d 4c80 9b3c
000002e0: a78b 9e3c bcb6 6f3d 3a1a b8bb 0436 0a3d
000002f0: 00bc 2ebb c91a 35bc e8ac 093d 71de b63c
00000300: 468e 23bc 7f2f d8ba e8a9 88bc 413e f63c
00000310: db86 8bbb b090 203c 5d02 0e3b c467 683b
00000320: 9658 933c d027 7ebc a970 80b9 3626 09bb
00000330: 6489 63bb 3c20 82bb 0bf4 a63c 450f c03c
00000340: 68e9 493c dfb7 6a3b c733 f3bc c9cb 16bc
00000350: 5311 be3c bcd2 833b baea 31bd 090e ad3c
00000360: c652 49bc c4d8 203c c25c 8ebc a358 353c
00000370: 88b5 ae3c 3a06 c0bb 65aa 6ebc fe80 803b
00000380: 9523 603c c078 b1bc cf91 58bc 8300 cdbc
00000390: c823 093c d31e a9bc 6ffb 8bbc 8b3f f13b
000003a0: 6bbe de3b 7ccd 8dbc 1499 303b a7a5 18bc
000003b0: 055b 52bb 4ab3 d0bb 9877 ee3b 5de6 873c
000003c0: 20a7 87bb ca68 683c 9cd4 933c 59f5 8c3c
000003d0: 2fb3 d5bb 3cc8 8c3b 710b f43b fd98 9ebc
000003e0: 4d39 433d 0d6e 093b bb6e 093d c771 27bc
000003f0: e479 1c3c 3d5f 51bb 86aa 57bc be2b b03c
