model_backup_final/saved_model_final/conv2_weights.npy (npy, 36992 bytes, 1 tensors)

array f4 [3, 3, 32, 32]
0.012885505 -0.0023048408 -0.0053308937 -0.043945085 0.012703507 -0.0074085086 0.0055215624 0.0014327931
0.00083238224 0.0071790796 0.0011715483 -0.011366144 -0.025091695 -0.015911987 -0.0404186 0.006901584
-0.007816236 0.0080849575 0.02906002 -0.002168966 0.0030634552 -0.012670558 -0.01461247 0.009486009
0.024356136 0.025000531 0.0077890004 0.0036463162 0.001573196 -0.04211996 -0.011005204 0.000493818
0.015421119 0.010639688 0.00090339646 -0.026388846 0.026248306 0.010049597 0.006898208 0.006943098
-0.015391379 0.0010690372 0.0023898652 0.0098321 0.020131692 0.01571959 -0.03813141 0.0041602002
0.00998498 0.0069757565 -0.0054523596 -0.011542044 0.0011711001 0.0021796694 -0.016061468 0.0025776783
0.008628267 -0.0015769365 0.02571288 0.008142319 0.0032117877 0.020236243 0.02813196 0.017924106
0.0022156492 -0.015296223 -0.0045037847 0.013297244 0.033502262 0.01087224 0.024975074 -0.0029483486
-0.02054927 0.009258224 -0.0055150166 0.033910677 0.016041921 0.008077469 -0.02968065 -0.0016109099
0.0017910884 -0.0022451365 0.013480114 -0.0071952366 -0.007833582 -0.022815824 -0.030705856 0.011853975
-0.0004941986 0.03904487 0.012568316 0.004375322 0.004286727 0.020477423 0.041311823 0.00031345087
-0.031502318 -0.026485257 -0.090247914 0.025919655 0.019135319 -0.022337511 -0.036919054 -0.06312254
-0.027411299 -0.023881406 -0.01632231 -0.012280734 -0.026228502 -0.05307445 0.04298164 -0.013919488
-0.06511426 -0.012248023 -0.0045843353 -0.028420784 -0.025341129 -0.034645524 0.024214357 -0.047007084
-0.024057845 -0.0045803245 -0.036577906 -0.02928803 -0.0077426303 0.010156499 -0.030627623 -0.035196744
-0.007605222 -0.004405908 -0.005771127 0.01440976 0.0057953172 0.00020484203 -0.022194989 -0.043448057
-0.015706474 -0.0063551054 -0.043193072 0.009289358 0.024842286 0.011197095 -0.028531903 -0.022489222
-0.009998243 -0.015239831 -0.018694129 -0.025747882 -0.019902777 0.009989915 0.0440364 -0.0009675721
-0.020962212 0.0010292477 0.007675448 -0.033935837 0.0034754789 0.0075126113 0.03517933 -0.0057499935
-0.0023596769 -0.00059578056 -0.023205973 -0.014885542 0.022134475 0.004830885 0.0025096128 -0.0257327
-0.0033789678 0.013068742 0.0014044287 0.038571313 0.015966116 0.0020684602 -0.0124824075 -0.004732472
0.0026095517 0.010161172 0.0033980382 -0.0052215275 -0.01039348 0.005385537 -0.02497785 0.0056079617
-0.0051826956 0.0054830234 0.007407545 -0.012585758 0.00024204237 0.03398823 0.026322298 0.028982919
-0.0070950477 -0.058930203 0.0021420373 -0.016808854 0.015801094 -0.0016206328 0.01873163 -0.024100933
-0.003612506 0.014460896 -0.006951098 -0.0026196896 0.01666144 0.016840855 -0.032788254 -0.008144655
0.013266183 -0.0042680665 -0.011711194 -0.002311389 0.0065477793 0.0067965197 0.01547605 0.019742804
-0.00063511037 0.0045199073 0.014447268 -0.00579434 0.013197436 0.012103011 0.034569874 0.0009543911
0.026757063 0.0013826233 0.0018502354 -0.042839173 0.0064005516 -0.006826324 0.0069309585 0.006798204
-0.0038614266 0.024327531 0.0033944463 0.023005484 0.036897622 -0.016775507 -0.070930615 0.00700326
-0.0047820997 0.010026689 0.0036271182 -0.01211197 -0.020970443 0.011761628 -0.012231239 0.0020927356
0.017612645 -0.0022500681 0.0027854482 0.016357388 -0.017718896 0.0028276867 0.01020999 0.009781019
00000000: ba1d 533c d00c 17bb c7ae aebb c3ff 33bd
00000010: 5f22 503c 13c3 f2bb 39ee b43b 8fcc bb3a
00000020: 3a34 5a3a 7c3e eb3b a38e 993a 1039 3abc
00000030: 198d cdbc db59 82bc f98d 25bd af26 e23b
00000040: ab0f 00bc c576 043c 470f ee3c 3625 0ebb
00000050: 40c4 483b 2c98 4fbc 2469 6fbc 356b 1b3c
00000060: 8586 c73c eacd cc3c df3a ff3b 09f7 6e3b
00000070: b333 ce3a fb85 2cbd 2c4f 34bc 9173 013a
00000080: dca8 7c3c 1652 2e3c e9d1 6c3a 6c2d d8bc
00000090: b006 d73c 11a7 243c 5d0a e23b ed82 e33b
000000a0: 1f2c 7cbc f01e 8c3a 499f 1c3b d116 213c
000000b0: 38eb a43c 5fc6 803c ae2f 1cbd 4a52 883b
000000c0: 0b98 233c e394 e43b b5a9 b2bb d71a 3dbc
000000d0: 997f 993a c9d8 0e3b 5793 83bc 44ee 283b
000000e0: 935d 0d3c 35b1 ceba d1a3 d23c 5c67 053c
000000f0: db7c 523b 7ac6 a53c ff74 e63c 93d5 923c
00000100: 6d34 113b 029d 7abc 7c94 93bb afdc 593c
00000110: ab39 093d 7b21 323c 8798 cc3c 1539 41bb
00000120: f156 a8bc ceaf 173c 50b7 b4bb ece5 0a3d
00000130: 596a 833c 5c57 043c d624 f3bc 2b25 d3ba
00000140: f4c2 ea3a 2423 13bb b2db 5c3c 05c6 ebbb
00000150: 6d58 00bc 40e8 babc d98a fbbc 2d37 423c
00000160: 1b8d 01ba 83ed 1f3d 57eb 4d3c dc5e 8f3b
00000170: ac77 8c3b 45c0 a73c 9636 293d aa56 a439
00000180: 9308 01bd 9cf7 d8bc e6d3 b8bd 7555 d43c
00000190: acc1 9c3c 28fd b6bc 6f38 17bd 6446 81bd
000001a0: a98d e0bc f0a2 c3bc 5db6 85bc 2235 49bc
000001b0: 28dd d6bc 9864 59bd 840d 303d 900e 64bc
000001c0: a05a 85bd efab 48bc 3138 96bb b4d2 e8bc
000001d0: 3398 cfbc 77e8 0dbd 305d c63c 808a 40bd
000001e0: f514 c5bc 8c16 96bb b7d2 15bd 73ed efbc
000001f0: e4b5 fdbb 7267 263c c8e6 fabc 762a 10bd
00000200: 3a35 f9bb 6f5f 90bb b91b bdbb ea16 6c3c
00000210: a5e6 bd3b ddca 5639 44d2 b5bc 97f6 31bd
00000220: ddaa 80bc 7d3e d0bb 38eb 30bd 6432 183c
00000230: 0d82 cb3c 0574 373c bdbb e9bc 513b b8bc
00000240: accf 23bc 7cb0 79bc 6e24 99bc 39ed d2bc
00000250: 260b a3bc beac 233c 835f 343d aaa4 7dba
00000260: f2b8 abbc d2e7 863a 5382 fb3b 4e00 0bbd
00000270: dcc4 633b 5a2c f63b 3318 103d 716a bcbb
00000280: cfa4 1abb 282e 1cba 741a bebc 7de2 73bc
00000290: 5c53 b53c 674c 9e3b 5178 243b 62cd d2bc
000002a0: ac71 5dbb 471e 563c cf14 b83a f4fc 1d3d
000002b0: 5fcb 823c 018f 073b 0383 4cbc da12 9bbb
000002c0: 0305 2b3b 0b7b 263c 9fb1 5e3b 5919 abbb
000002d0: 6a49 2abc 2979 b03b 599e ccbc fec2 b73b
000002e0: 9ad3 a9bb efaa b33b feba f23b 7f34 4ebc
000002f0: c1cc 7d39 3e37 0b3d dca1 d73c 966d ed3c
00000300: 937d e8bb cc60 71bd 6c61 0c3b b9b2 89bc
00000310: 4c71 813c 6a6b d4ba 1373 993c 526f c5bc
00000320: cbbf 6cbb 65ed 6c3c 09c6 e3bb 19af 2bbb
00000330: 927d 883c d5f5 893c fa4c 06bd 2971 05bc
00000340: 685a 593c 23db 8bbb 4fe0 3fbc ac7a 17bb
00000350: c18e d63b 57b5 de3b 428f 7d3c a9bb a13c
00000360: 897d 26ba bb1b 943b 3cb4 6c3c 72de bdbb
00000370: 0f3a 583c b54b 463c 2499 0d3d 1a30 7a3a
00000380: a131 db3c 2439 b53a 9983 f23a 2178 2fbd
00000390: b8bb d13b 5baf dfbb 181d e33b 78c3 de3b
000003a0: fd0f 7dbb 884a c73c 5c75 5e3b ff75 bc3c
000003b0: f621 173d ca6c 89bc 1244 91bd 9a7b e53b
000003c0: 29b3 9cbb fb46 243c f2b4 6d3b 4971 46bc
000003d0: 35ca abbc d8b3 403c 8965 48bc 4726 093b
000003e0: 6548 903c e175 13bb 118c 363b eeff 853c
000003f0: 3827 91bc b650 393b cd47 273c 9140 203c
