model_backup_final/saved_model_final/conv6_weights.npy (npy, 589952 bytes, 1 tensors)

array f4 [3, 3, 128, 128]
0.011646802 -0.0013437873 -0.021018311 0.02077322 0.008611602 -0.014650252 -0.061924115 -0.01211318
0.012791678 -0.026322717 0.018229458 -0.033636015 -0.02645983 0.038259774 0.008445957 -0.03789151
0.0065358733 -0.027155347 0.0022232514 -0.017444706 0.017017558 -0.024628915 -0.030189315 -0.055969168
0.0025042526 -0.01899293 0.0041070157 -0.03709483 0.003527128 0.024266385 -0.013302006 -0.0783626
-0.041092277 -0.011116128 -0.025851753 -0.027198767 -0.031046377 -0.01679411 0.027783731 -0.008372077
0.008143494 -0.013333868 -0.021703323 -0.014024586 -0.033738635 -0.0023257989 -0.0595973 -0.03677677
-0.029934712 -0.009466535 0.019490242 -0.027408104 -0.013225044 -0.010317055 -0.015179918 -0.020634029
-0.011882002 -0.027438248 -0.03993915 -0.050292015 -0.0067980904 -0.018520365 -0.028687559 0.003991579
-0.0116344895 0.019791352 -0.00029098176 -0.0065096384 -0.017605288 0.010467067 -0.030728566 -0.02434064
-0.0021093888 -0.03443123 -0.017287955 -0.0014063632 0.027296795 0.020513497 0.011726071 -0.0148435
0.0013272916 0.005755031 0.024462532 -0.03313354 0.02531599 -0.011751684 -0.047614016 -0.05058334
-0.0030931423 -0.0036648263 -0.018313106 -0.016149934 0.0024203954 -0.023035869 0.01984054 0.013911955
0.014510267 -0.013808823 -0.024897145 -0.062500104 -0.08807012 -0.10391291 -0.015661865 -0.02581966
-0.014184051 0.017930338 0.019514764 -0.0332955 -0.05217811 -0.05028968 -0.028768389 -0.007789114
0.00607894 -0.0040283515 0.0012884244 -0.009826476 -0.0042967563 -0.048417456 -0.0080194 -0.013470507
0.012178263 -0.025283705 -0.012015228 0.003037373 -0.026575854 -0.020230545 -0.024084404 0.018876787
-0.0046231896 -0.0039122296 0.0034006797 -0.027961275 0.004306539 0.0052844347 0.0016583592 -0.041914318
0.03345172 -0.002734332 -0.02931881 -0.010492866 -0.014845952 -0.021439563 -0.008903338 -0.005908568
0.050888598 -0.012182844 -0.029374287 -0.020985931 -0.048361726 0.0019028818 -0.031835757 -0.018182373
0.01059839 0.0146154845 0.013379858 0.012193968 -0.001587606 -0.04134344 -0.009863665 0.029682962
-0.0054727956 -0.018097548 0.0039559384 0.0037220537 -0.010322836 -0.0040353565 -0.0001959549 0.007954066
-0.0064269113 -0.0139331315 -0.008146215 -0.047323152 0.004252023 -0.0599332 -0.022103323 0.01510432
-0.0020856727 0.0006871206 0.0019485495 0.03736807 0.010926776 0.0031805742 -0.009727038 -0.064520724
-0.022302372 -0.011271191 -0.010876943 0.005364033 -0.02585009 -0.004934899 -0.021495637 0.00324868
0.0018581024 0.021787366 -0.02977837 -0.028270578 0.014079925 0.0050579766 0.015162718 -0.009263838
0.009524826 -0.0014009938 0.00045518373 0.0035685124 -0.003452457 -0.01952085 0.017011091 0.02804469
0.013163339 0.014003516 0.03172753 0.0076840003 0.011522514 -0.010977986 0.03415387 -0.0017484806
0.0328265 -0.0019259523 0.003335233 -0.01221037 0.0065025897 -0.024485134 0.0072871987 0.001087207
-0.015136882 -0.016253792 0.0063662063 -0.039356142 0.018521665 -0.031099584 -0.0118917255 0.020441474
0.014899262 0.00628052 0.0079684425 -0.0069197337 -0.0040113376 -0.010957686 -0.028622832 -0.050357156
-0.034527384 -0.0060993833 -0.0029880938 -0.030393595 -0.0072536166 -0.002329197 -0.0009835388 -0.017091772
-0.024959166 0.02200554 0.011863521 0.009678051 -0.003637679 -0.007134491 0.017196989 -0.0054311287
00000000: 3ad2 3e3c 0522 b0ba 982e acbc 9a2c aa3c
00000010: ad17 0d3c 9c07 70bc 24a4 7dbd 5c76 46bc
00000020: 3094 513c bda2 d7bc f255 953c ebc5 09bd
00000030: 49c2 d8bc 48b6 1c3d e960 0a3c 2134 1bbd
00000040: e12a d63b e474 debc f8b3 113b 33e8 8ebc
00000050: 6868 8b3c 94c2 c9bc 954f f7bc ed3f 65bd
00000060: 631e 243b 1097 9bbc 2594 863b c0f0 17bd
00000070: 6327 673b 4cca c63c a8f0 59bc 927c a0bd
00000080: 6050 28bd 6c20 36bc 0ec7 d3bc f3cf debc
00000090: f954 febc cd93 89bc b59a e33c 092b 09bc
000000a0: 4a6c 053c 4c76 5abc 2bcb b1bc 61c7 65bc
000000b0: 8631 0abd 6e6c 18bb 4c1c 74bd 3da3 16bd
000000c0: a439 f5bc 8719 1bbc 00aa 9f3c f686 e0bc
000000d0: dbad 58bc dd08 29bc 31b5 78bc b208 a9bc
000000e0: bbac 42bc 2dc6 e0bc 3c97 23bd 00ff 4dbd
000000f0: 84c2 debb 05b8 97bc 2c02 ebbc cbcb 823b
00000100: 969e 3ebc 7921 a23c e98e 98b9 ce4e d5bb
00000110: f738 90bc 107e 2b3c 79ba fbbc 0666 c7bc
00000120: ac3d 0abb c307 0dbd 789f 8dbc b855 b8ba
00000130: 879d df3c ec0b a83c b51e 403c 2732 73bc
00000140: 84f8 ad3a b394 bc3b a665 c83c 09b7 07bd
00000150: 7b63 cf3c 238a 40bc ea06 43bd 7a30 4fbd
00000160: 51b6 4abb 952d 70bb 5e05 96bc de4c 84bc
00000170: 7f9f 1e3b b8b5 bcbc a188 a23c f8ee 633c
00000180: 79bc 6d3c 673e 62bc 19f5 cbbc 0e00 80bd
00000190: 1b5e b4bd 4bd0 d4bd 504d 80bc c083 d3bc
000001a0: 3964 68bc a5e2 923c 6ddd 9f3c dd60 08bd
000001b0: b7b8 55bd 8dfc 4dbd afab ebbc d33b ffbb
000001c0: d831 c73b 4300 84bb 59e0 a83a 3aff 20bc
000001d0: cecb 8cbb 6251 46bd cd63 03bc 67b3 5cbc
000001e0: 5687 473c c61f cfbc 85db 44bc aa0e 473b
000001f0: 9bb5 d9bc 87ba a5bc a84c c5bc 7ea3 9a3c
00000200: 207e 97bb 2932 80bb f0dd 5e3b 0b0f e5bc
00000210: de1d 8d3b 0d29 ad3b 4d5d d93a 59ae 2bbd
00000220: ac04 093d 7b32 33bb 002e f0bc 45ea 2bbc
00000230: 703c 73bc 06a2 afbc 4edf 11bc a99c c1bb
00000240: 9070 503d 8d9a 47bc 58a2 f0bc b0ea abbc
00000250: f216 46bd 1e6a f93a 3666 02bd 33f3 94bc
00000260: dfa4 2d3c c975 6f3c 3137 5b3c 35c9 473c
00000270: 3817 d0ba bd57 29bd 369b 21bc af29 f33c
00000280: 2355 b3bb 4f41 94bc d1a0 813b b3ed 733b
00000290: 1d21 29bc 063b 84bb 3e79 4db9 c551 023c
000002a0: d798 d2bb ca47 64bc b477 05bc ecd5 41bd
000002b0: 8e54 8b3b 847c 75bd 0712 b5bc 1c78 773c
000002c0: c8af 08bb e21f 343a 7966 ff3a 430f 193d
000002d0: 3806 333c 2e71 503b 285e 1fbc 7123 84bd
000002e0: 77b3 b6bc cdaa 38bc 3535 32bc c5c4 af3b
000002f0: 91c3 d3bc efb4 a1bb 9e17 b0bc cee7 543b
00000300: 928b f33a 6b7b b23c c5f1 f3bc b397 e7bc
00000310: 7caf 663c 62bd a53b 0c6d 783c 5ac7 17bc
00000320: 040e 1c3c 8da1 b7ba baa5 ee39 b4dd 693b
00000330: 9e42 62bb 31ea 9fbc d85a 8b3c fabd e53c
00000340: 0cab 573c 016f 653c baf4 013d 11ca fb3b
00000350: edc8 3c3c 03dd 33bc eee4 0b3d 462d e5ba
00000360: 1475 063d 3c70 fcba ed93 5a3b 010e 48bc
00000370: ad13 d53b 0c95 c8bc 74c9 ee3b 9d80 8e3a
00000380: af00 78bc ac26 85bc 9c9b d03b e833 21bd
00000390: bfba 973c 8ec4 febc 83d5 42bc e174 a73c
000003a0: 091c 743c d2cc cd3b 128e 023c efbe e2bb
000003b0: 8a71 83bb de87 33bc 6e7a eabc 4e43 4ebd
000003c0: 966c 0dbd 56dd c7bb e5d3 43bb fdfb f8bc
000003d0: bfaf edbb 71a5 18bb 16ea 80ba 0b04 8cbc
000003e0: 2a77 ccbc f644 b43c 375f 423c b090 1e3c
000003f0: 2066 6ebb 73c8 e9bb b3e0 8c3c 9cf7 b1bb
