model_backup_final/saved_model_final/fc1_biases.npy (npy, 4928 bytes, 1 tensors)

array f4 [1200]
0	0xbb92891e	-0.004471912
1	0xbc903c93	-0.017607009
2	0x3c2149ad	0.009844226
3	0xbc065318	-0.008198522
4	0x3b9f1e92	0.004855939
5	0x3c345325	0.011006151
6	0xbb0569f6	-0.0020357347
7	0x3b69acb8	0.0035655927
8	0x3c903964	0.017605491
9	0x3c449aa3	0.011999759
10	0x3b27cf10	0.0025605597
11	0xbc926f5d	-0.017875368
12	0xbc1f6604	-0.009728912
13	0x3c3d9da0	0.011573225
14	0xbc74f409	-0.014950761
15	0xbba4d45f	-0.0050301994
16	0x3c28a115	0.010292311
17	0x3a988318	0.0011635749
18	0x3c9496b4	0.018138267
19	0xbbc499cc	-0.0059997793
20	0xbc9c431f	-0.019074975
21	0xbb63aa3b	-0.0034738916
22	0xbb610de2	-0.003434055
23	0xbb02cc1f	-0.0019958091
24	0x3c318eea	0.010837296
25	0x3c59c102	0.013290646
26	0xbc224b88	-0.009905703
27	0xbb29ca66	-0.0025907992
28	0xbc944bd1	-0.018102558
29	0x3a08f88a	0.00052250235
30	0xbb810a84	-0.003938021
31	0xbc705190	-0.0146678835
32	0x3c42afd3	0.01188274
33	0x3bb7be8c	0.0056074318
34	0xbca5ebd4	-0.020254053
35	0xbb231392	-0.002488349
36	0x3c700376	0.014649263
37	0x3b6751c9	0.003529655
38	0xbcfd95b2	-0.03095517
39	0x3b8979bb	0.0041954196
40	0xbc0db989	-0.008650192
41	0xbc37f179	-0.011227005
42	0xbc85b28a	-0.016320486
43	0xbb1ce8a8	-0.0023942385
44	0xbb13d7e3	-0.0022559098
45	0x3c3bb862	0.0114575345
46	0xbc09f5f8	-0.00842046
47	0x3c825784	0.015910871
48	0xbc8340f1	-0.016022177
49	0xbb1ed636	-0.0024236566
50	0x3cac59e9	0.021038966
51	0x3b291549	0.002580004
52	0x3c21b3a5	0.009869491
53	0xbbabceb8	-0.0052431487
54	0xbc348f2c	-0.011020463
55	0x3bb9f25e	0.0056746444
56	0x3c5f050d	0.013612044
57	0xbbbaa011	-0.005695351
58	0xbb58dd6f	-0.003309097
59	0xba87b263	-0.0010352846
60	0x3c4874db	0.012234892
61	0x3bad8941	0.005295903
62	0xba9776c7	-0.0011555784
63	0x3c277178	0.010219924
64	0xbb516ee9	-0.0031956977
65	0x3ab3a94d	0.0013707072
66	0xbb2452e6	-0.0025073825
67	0x3c31a8ed	0.010843498
68	0xbc0ebca6	-0.0087119695
69	0x3a07c9a2	0.0005179887
70	0x3c25a7ff	0.010110854
71	0x3c26b7d8	0.010175668
72	0xbc4efb8c	-0.012633216
73	0x3c64506b	0.013935189
74	0x3c5b09d6	0.013369044
75	0xbc53b560	-0.012921661
76	0x3c48b39c	0.012249853
77	0x3cb04d90	0.02152136
78	0xbb209415	-0.0024502326
79	0x3c75fef7	0.015014402
80	0x3c88ef7d	0.01671576
81	0x3c127d76	0.008941045
82	0xbbc72df6	-0.006078477
83	0xbc5f4c5f	-0.013629048
84	0xb9c584a5	-0.00037673596
85	0x3b4f447a	0.0031626509
86	0xbc40aee2	-0.011760445
87	0x3af16178	0.0018415889
88	0x3cca7ab5	0.024716714
89	0xbc17fbc5	-0.009276335
90	0x3c175a84	0.009237889
91	0x3c8d69f5	0.017262438
92	0x3c692606	0.014230257
93	0xbba9d832	-0.005183243
94	0xbcb09a82	-0.02155805
95	0xbae4fe75	-0.0017470854
96	0xbcd21fb0	-0.025649875
97	0xbc5f25bc	-0.013619836
98	0xba90576c	-0.0011012382
99	0xbca20be0	-0.019781053
100	0xbc74403a	-0.014907891
101	0xbaf99397	-0.0019041178
102	0xbc1291b5	-0.008945872
103	0xbbbd96f8	-0.005785819
104	0x3c417311	0.011807219
105	0x3bb0f8cb	0.005400752
106	0xbbe8a9b1	-0.007100307
107	0x3c80c6b6	0.015719753
108	0xbc9e2175	-0.019303063
109	0xbc195d91	-0.009360687
110	0xbcbc3651	-0.022975119
111	0xbab2842d	-0.0013619714
112	0xbc15b816	-0.009138128
113	0xbaeae6c2	-0.0017921554
114	0x3c46dd8f	0.012137785
115	0xbb844c25	-0.0040373974
116	0xbc1b60f0	-0.009483561
117	0xba627099	-0.0008637994
118	0xbc430de7	-0.01190517
119	0xbc0327ae	-0.008005066
120	0xbb5e7082	-0.0033941572
121	0x3c586cd3	0.013209539
122	0xbc010cad	-0.007876557
123	0xbc22307e	-0.009899257
124	0x3b0d4c20	0.0021560267
125	0x3c7a30e6	0.015270447
126	0x3c5b53dd	0.013386694
127	0xbb0c338f	-0.0021393036
128	0xbc13406a	-0.0089875255
129	0x3c90b471	0.017664166
130	0xbc066ce6	-0.008204674
131	0x3c82f6d5	0.01598684
132	0xbc5bc780	-0.013414264
133	0x3c556c84	0.01302636
134	0xbcbf60d0	-0.023361593
135	0xbc051c5e	-0.008124439
136	0xb9da7d9a	-0.0004167378
137	0x3cc69d03	0.02424479
138	0xbb415b89	-0.0029504022
139	0xbb29e8a1	-0.002592601
140	0x3bb8f761	0.0056447242
141	0xbc4f2aef	-0.0126445135
142	0xbc8262e2	-0.015916292
143	0xbbfe1a05	-0.0077545666
144	0xb9920a6d	-0.00027855058
145	0xbcf24362	-0.029573146
146	0xb9e17551	-0.00043002752
147	0x3c2f593b	0.010702427
148	0xbcb14370	-0.021638602
149	0xbb60cd29	-0.0034301972
150	0x3b27f361	0.0025627243
151	0xbc0d0387	-0.008606798
152	0xbc10bbb6	-0.008833816
153	0x3c399edd	0.01132938
154	0x3c793af7	0.015211812
155	0x3c01f3cd	0.007931662
156	0xbbc12ec5	-0.005895468
157	0xbceb986c	-0.028759204
158	0xbcbdbf84	-0.02316261
159	0x3beab632	0.0071628327
160	0xbc6365d9	-0.013879263
161	0xbb5f588b	-0.0034079875
162	0x3c94dba4	0.018171139
163	0x3765e2a5	1.3702233e-05
164	0x3c514a3f	0.012774049
165	0xbb8b5df1	-0.004253142
166	0xbb963aff	-0.0045846696
167	0xbb8a83a0	-0.0042271167
168	0xbbd3bff1	-0.00646209
169	0x3be05bd9	0.0068468866
170	0x3ba103b7	0.004913773
171	0x3c099c1a	0.008399034
172	0x3c9837fb	0.018581381
173	0x3c326d9d	0.010890392
174	0x3bff8115	0.00779737
175	0xbb9787ce	-0.0046243435
176	0xbc7fb2da	-0.015606606
177	0x3c99435a	0.018708874
178	0xbc0dc910	-0.008653894
179	0xbb2129d9	-0.0024591594
180	0xbc4e7177	-0.012600294
181	0x3b2b0e07	0.002610089
182	0xbcc1f969	-0.023678498
183	0x3c878114	0.016541041
184	0x3c710007	0.014709479
185	0x3c963fe9	0.018341022
186	0xbb067ac0	-0.0020519942
187	0x3b331c09	0.0027329943
188	0x3ca8c83f	0.020603297
189	0xbb8db9e0	-0.0043251365
190	0xbb94212a	-0.004520555
191	0xbb92f480	-0.004484713
192	0xbae4759b	-0.0017430069
193	0xb9bb9bee	-0.00035783596
194	0xbb38e0c3	-0.002821014
195	0xbbfd6d84	-0.0077340025
196	0x3bff411f	0.0077897455
197	0xba9fc0fa	-0.0012188249
198	0x3cb77bad	0.02239784
199	0x3c4b146e	0.012395008
200	0x3bda269b	0.006657434
201	0xbaaa8782	-0.0013010355
202	0xbc3f6a73	-0.011683094
203	0xba41f306	-0.0007398579
204	0x3c65eac2	0.014033021
205	0xbbe836b6	-0.0070866
206	0x3c1efd59	0.0097039575
207	0xbba3e5c4	-0.0050017554
208	0x3bdfde5f	0.0068319286
209	0xbbef80f4	-0.0073090736
210	0xbc8b84e6	-0.017031144
211	0x3c92b667	0.017909242
212	0x3c6247ad	0.013811034
213	0xbbe86029	-0.0070915413
214	0xba25352d	-0.00063021743
215	0xbc5baa38	-0.0134072825
216	0x3c49d946	0.012319868
217	0xbc687e2a	-0.014190236
218	0xbb10c578	-0.0022090357
219	0xbc3107d5	-0.01080509
220	0x3afb4aa5	0.0019172026
221	0xbb85bcbc	-0.004081337
222	0x3c9561d1	0.018235119
223	0xbb326c47	-0.0027225183
224	0x3c1a7ba9	0.009428897
225	0xbb8a66b6	-0.00422367
226	0x3cbc51cf	0.022988228
227	0x3c81fd87	0.015867962
228	0x3c329949	0.010900804
229	0xbc695056	-0.014240345
230	0xbc7532e7	-0.014965749
231	0xba8ede5f	-0.0010900012
232	0x3ca67ade	0.02032226
233	0xbd103dc1	-0.035215143
234	0xbb9c2d84	-0.004766168
235	0xbc8679c1	-0.016415479
236	0xbc8fdddf	-0.017561851
237	0x3c6725c9	0.01410813
238	0xbc0ee0ef	-0.008720621
239	0x3c52ce3e	0.012866555
240	0xbbcb76cd	-0.0062092305
241	0x3c4357d7	0.011922798
242	0x3c04c522	0.008103641
243	0xbb1f3396	-0.0024292222
244	0x3a8d067e	0.0010759381
245	0xbce92773	-0.028461194
246	0xbca8f071	-0.020622464
247	0xbc26595b	-0.01015314
248	0xba9c7d77	-0.0011939247
249	0xbc03151e	-0.00800064
250	0xbbd7e3da	-0.0065884413
251	0x3bb14bf0	0.005410664
252	0xbc5f379c	-0.013624098
253	0xbcee5879	-0.029094921
254	0x3ac18bea	0.0014766429
255	0x3a78ad1e	0.00094862457
