model_backup_final/saved_model_final/fc2_weights.npy (npy, 48128 bytes, 1 tensors)

array f4 [1200, 10]
0	0xb99c11d9	-0.00029767936
1	0xbd236f47	-0.039901044
2	0xbcb4fb55	-0.0220925
3	0xbb74178f	-0.0037245487
4	0x3b68e979	0.0035539551
5	0xbb8df237	-0.004331853
6	0x3bd0367c	0.0063541513
7	0xbbe4ef34	-0.006986523
8	0x3c59657d	0.013268826
9	0xb99ec5ab	-0.00030283383
10	0x3c90e96c	0.01768943
11	0xbd58c409	-0.05292133
12	0x3beb6546	0.0071837036
13	0x3c339be5	0.010962461
14	0xbd009928	-0.03139606
15	0xbbf1b7ec	-0.0073766615
16	0x3d3946a7	0.045233395
17	0x3c93594c	0.017986916
18	0xbd0d8edf	-0.03456008
19	0xbcdd3ca6	-0.027006458
20	0xbd014847	-0.03156307
21	0x3c5f2d74	0.013621677
22	0x3c0adebe	0.008475957
23	0xbc9336b7	-0.017970426
24	0x3c23caaf	0.009997054
25	0x3bb08d65	0.0053879493
26	0x3cb4e2e3	0.022080844
27	0xbc524c5e	-0.01283559
28	0xbc9f0f37	-0.019416435
29	0xbb6808f2	-0.0035405722
30	0xbd2f8263	-0.042848956
31	0xbc2ae6bd	-0.010430989
32	0x39df2d84	0.00042567786
33	0xbc5da1c3	-0.0135273365
34	0xbd32d846	-0.043663286
35	0xbd3f3503	-0.046681415
36	0x3c97834f	0.01849523
37	0x3cd735db	0.026270797
38	0x3cf8b13f	0.030357955
39	0x3cb32d02	0.021872047
40	0x3c844c74	0.016149737
41	0xbb740d4b	-0.0037239369
42	0xbbf803cf	-0.0075688134
43	0x3c1646c9	0.00917215
44	0xbb2e4892	-0.0026593548
45	0x3c733027	0.014843023
46	0x3c6b67b0	0.014367983
47	0xbd08b741	-0.03337789
48	0x3ad6f91d	0.0016401146
49	0x3c25f381	0.010128857
50	0x3ba00eeb	0.004884591
51	0x3c6e5fb6	0.014549186
52	0x3cd61dc2	0.026137237
53	0x3cb2aaba	0.021809924
54	0xbda1aa48	-0.07893807
55	0x3c8515b7	0.016245706
56	0x3cb73c61	0.022367658
57	0xbd2a7e73	-0.041624498
58	0xbd13f6df	-0.036124106
59	0x3bc25e76	0.005931671
60	0xbbcd7e89	-0.0062711877
61	0x3c135af1	0.00899385
62	0xbba7ea5b	-0.005124373
63	0xbbd8ce89	-0.006616418
64	0x3c1f128b	0.009709011
65	0xbc542a1c	-0.012949493
66	0x3bbc650d	0.005749351
67	0x3b125c78	0.0022332948
68	0x3c361e4a	0.01111562
69	0xb8c69c35	-9.4704716e-05
70	0x3d21edb9	0.03953335
71	0xbc01ae9e	-0.007915167
72	0xbc8e2fc4	-0.01735676
73	0x3ad1205a	0.0015955076
74	0xbab40a97	-0.0013736066
75	0xbaea1919	-0.0017860263
76	0xbdd28460	-0.10279155
77	0xbd145ff0	-0.036224306
78	0x3c3e8a27	0.011629618
79	0xbce2f353	-0.027703917
80	0x3ba9ef23	0.005185978
81	0x3c9201f1	0.017823191
82	0x3bc1722a	0.005903502
83	0x3c20e00e	0.009819044
84	0x3b2e40e2	0.0026588966
85	0x3ade033a	0.0016938217
86	0xbdab4c80	-0.083642006
87	0x3be1c9e2	0.0068905214
88	0x3c249871	0.0100461105
89	0x3a833c04	0.0010012393
90	0xbc0b9680	-0.008519769
91	0x3cabe695	0.020983974
92	0x3a5faaa0	0.00085322
93	0x3c02a52c	0.00797395
94	0xba7660f8	-0.0009398605
95	0x3aa4b789	0.0012566905
96	0xbd91bc89	-0.07116038
97	0x3c318823	0.01083568
98	0xb9e6067e	-0.00043873856
99	0x3c479856	0.012182316
100	0x3be5140e	0.006990916
101	0xbce8e8f0	-0.028431386
102	0x3c34df4b	0.011039565
103	0x3bc9ab2e	0.0061544394
104	0x3b97029d	0.004608466
105	0xbc8e093d	-0.01733839
106	0xbce4a0af	-0.027908651
107	0x3b92fb7b	0.004485545
108	0xbd235f94	-0.039886072
109	0x399bc309	0.00029709216
110	0x3ccf5482	0.025308851
111	0xbbfb34c5	-0.0076662027
112	0xbc3aa3f6	-0.01139163
113	0xbd80399f	-0.0626099
114	0x3c608822	0.013704332
115	0x391eea20	0.00015155273
116	0x3c4aea00	0.0123848915
117	0xbd5398d1	-0.05165941
118	0xbc23439b	-0.009964849
119	0x3b9a9924	0.004717963
120	0xbc4f7601	-0.012662412
121	0xbd78bd1a	-0.060727216
122	0x3c497a26	0.012297189
123	0x3c27aec9	0.010234543
124	0x3bf31425	0.007418173
125	0xbb5a0ce2	-0.003327184
126	0x3c923e08	0.017851844
127	0x3bc3493f	0.0059596593
128	0x3c13a2ed	0.0090110125
129	0xbc75b36c	-0.014996391
130	0x3c467a6f	0.012114151
131	0x3ba0bae9	0.004905094
132	0xbd94b516	-0.07261102
133	0x3d37e1da	0.044893123
134	0x3c875590	0.016520292
135	0x3cb85aae	0.022504177
136	0x3c478bdf	0.012179344
137	0x3ac17648	0.0014759982
138	0xbcd0a196	-0.025467675
139	0xbd2bf654	-0.041982964
140	0x3d4c08ed	0.0498132
141	0xbcead49e	-0.028665837
142	0xbceccafb	-0.028905382
143	0xbd13679a	-0.035987474
144	0x3bab9321	0.005236045
145	0x3a3b36d8	0.0007141656
146	0x3c3cf9fc	0.01153421
147	0xbccc4b07	-0.02493812
148	0xbcba233f	-0.022721885
149	0x3bf6492a	0.007516046
150	0xbbaa8285	-0.0052035474
151	0xbccb6b99	-0.02483158
152	0xbc8a84cb	-0.016909024
153	0xbc045886	-0.008077746
154	0xbc2b521e	-0.01045659
155	0xbc9fe93a	-0.01952039
156	0xbc563fce	-0.013076736
157	0xbcd5bd27	-0.026091171
158	0xbc5ed41e	-0.013600377
159	0xbc89b649	-0.016810553
160	0xbc5f90d0	-0.013645366
161	0x3d8f7c43	0.07006123
162	0x3b77fcdd	0.0037839927
163	0xbcdc83b2	-0.026918266
164	0xbc9d65f3	-0.019213652
165	0xbcff2f2a	-0.03115042
166	0xbd1b54a6	-0.037922524
167	0xbda31b67	-0.07964211
168	0x3bec44cc	0.0072103497
169	0x3b855ca6	0.0040698824
170	0x3d3206ae	0.0434634
171	0xbc4ba18a	-0.012428651
172	0xbd036cb3	-0.032086086
173	0xbc4f3788	-0.012647517
174	0xbd2f9f01	-0.042876247
175	0x3beb89a6	0.00718804
176	0xbb75646a	-0.0037443885
177	0x3d295d23	0.041348588
178	0x3cb016a2	0.021495167
179	0xbc89da7a	-0.01682781
180	0xbd010525	-0.031499047
181	0x3c5c9816	0.0134639945
182	0xbdc39161	-0.09549213
183	0x3a04a8aa	0.00050605333
184	0xbcac7c0a	-0.02105524
185	0x3cf14f14	0.029456653
186	0x3c4d9cdc	0.012549605
187	0xba4eacd3	-0.0007884029
188	0xbcf3e769	-0.02977343
189	0x3cf2b99e	0.029629525
190	0xbb9dc647	-0.0048148963
191	0xbd04b503	-0.03239919
192	0x3ca5135c	0.020150833
193	0xbce649ae	-0.028111305
194	0xbcd530e2	-0.026024286
195	0x3cc36ad4	0.02385465
196	0x3c8a8175	0.016907433
197	0x3c7683c6	0.015046066
198	0xbd2b1edf	-0.041777488
199	0x3cba4137	0.022736175
200	0x3ce4ff69	0.02795382
201	0xbcb06bf5	-0.021535853
202	0x3d0a01f6	0.033693276
203	0x3a48dbc5	0.0007662143
204	0x3d1a5177	0.037675347
205	0xbc175f80	-0.009239078
206	0xbc91a6dc	-0.01777976
207	0x3cd22718	0.025653407
208	0x3b3f09c5	0.002915011
209	0xba6e7994	-0.0009097096
210	0x3c21a731	0.009866522
211	0x3b596d1a	0.0033176602
212	0x3c02bb68	0.007979251
213	0x3c95b298	0.018273637
214	0xbb1d48f7	-0.002399979
215	0x3bac1aed	0.0052522332
216	0x3b280ced	0.002564247
217	0x3b8c5f8c	0.004283851
218	0xbc37b58b	-0.011212717
219	0x3b3ed1b6	0.0029116697
220	0x3a5cd39a	0.0008423865
221	0xbc19da12	-0.009390371
222	0xbb0db11b	-0.0021620456
223	0xbc1dd255	-0.009632667
224	0xbc46acc1	-0.012126149
225	0xba7d5afb	-0.0009664741
226	0xbc43e5fe	-0.01195669
227	0xbc70f2be	-0.014706312
228	0xbc87739b	-0.016534617
229	0xbbd6c53b	-0.0065542734
230	0x3b57f4f6	0.0032952405
231	0xbb884a78	-0.004159268
232	0xbc05a9da	-0.008158172
233	0xbb0f8564	-0.0021899575
234	0xbbcfe0fd	-0.0063439594
235	0x3aec0e99	0.0018009722
236	0xbbe26e42	-0.0069101164
237	0x3c51ab2e	0.01279716
238	0xbc8f12e9	-0.017465072
239	0x3aecbc49	0.0018061484
240	0xbc5f0bc6	-0.013613647
241	0x3c018e50	0.007907465
242	0x3bd68eb5	0.0065477737
243	0xbcfd97e3	-0.030956214
244	0xbd0fff58	-0.035155624
245	0x3c712178	0.014717452
246	0xbcbed94b	-0.023296973
247	0x3c4807ee	0.012208922
248	0x3cb8c17d	0.0225532
249	0x3b25d1d5	0.0025302072
250	0xbc4b2bbf	-0.012400567
251	0xbd30a753	-0.043128323
252	0x3d143191	0.036180083
253	0x3d2e51a3	0.042558324
254	0xbb1dcd4f	-0.0024078672
255	0xbbd4cdc0	-0.006494254
